ir_version: 4
producer_name: "pytorch"
producer_version: "1.3"
graph {
  node {
    input: "input0"
    input: "1"
    output: "259"
    op_type: "Conv"
    attribute {
      name: "dilations"
      ints: 1
      ints: 1
      type: INTS
    }
    attribute {
      name: "group"
      i: 1
      type: INT
    }
    attribute {
      name: "kernel_shape"
      ints: 7
      ints: 7
      type: INTS
    }
    attribute {
      name: "pads"
      ints: 3
      ints: 3
      ints: 3
      ints: 3
      type: INTS
    }
    attribute {
      name: "strides"
      ints: 2
      ints: 2
      type: INTS
    }
  }
  node {
    input: "259"
    input: "2"
    input: "3"
    input: "4"
    input: "5"
    output: "260"
    op_type: "BatchNormalization"
    attribute {
      name: "epsilon"
      f: 1e-05
      type: FLOAT
    }
    attribute {
      name: "momentum"
      f: 0.9
      type: FLOAT
    }
  }
  node {
    input: "260"
    output: "261"
    op_type: "Relu"
  }
  node {
    input: "261"
    output: "262"
    op_type: "MaxPool"
    attribute {
      name: "ceil_mode"
      i: 0
      type: INT
    }
    attribute {
      name: "kernel_shape"
      ints: 3
      ints: 3
      type: INTS
    }
    attribute {
      name: "pads"
      ints: 1
      ints: 1
      ints: 1
      ints: 1
      type: INTS
    }
    attribute {
      name: "strides"
      ints: 2
      ints: 2
      type: INTS
    }
  }
  node {
    input: "262"
    input: "7"
    output: "263"
    op_type: "Conv"
    attribute {
      name: "dilations"
      ints: 1
      ints: 1
      type: INTS
    }
    attribute {
      name: "group"
      i: 1
      type: INT
    }
    attribute {
      name: "kernel_shape"
      ints: 3
      ints: 3
      type: INTS
    }
    attribute {
      name: "pads"
      ints: 1
      ints: 1
      ints: 1
      ints: 1
      type: INTS
    }
    attribute {
      name: "strides"
      ints: 1
      ints: 1
      type: INTS
    }
  }
  node {
    input: "263"
    input: "8"
    input: "9"
    input: "10"
    input: "11"
    output: "264"
    op_type: "BatchNormalization"
    attribute {
      name: "epsilon"
      f: 1e-05
      type: FLOAT
    }
    attribute {
      name: "momentum"
      f: 0.9
      type: FLOAT
    }
  }
  node {
    input: "264"
    output: "265"
    op_type: "Relu"
  }
  node {
    input: "265"
    input: "13"
    output: "266"
    op_type: "Conv"
    attribute {
      name: "dilations"
      ints: 1
      ints: 1
      type: INTS
    }
    attribute {
      name: "group"
      i: 1
      type: INT
    }
    attribute {
      name: "kernel_shape"
      ints: 3
      ints: 3
      type: INTS
    }
    attribute {
      name: "pads"
      ints: 1
      ints: 1
      ints: 1
      ints: 1
      type: INTS
    }
    attribute {
      name: "strides"
      ints: 1
      ints: 1
      type: INTS
    }
  }
  node {
    input: "266"
    input: "14"
    input: "15"
    input: "16"
    input: "17"
    output: "267"
    op_type: "BatchNormalization"
    attribute {
      name: "epsilon"
      f: 1e-05
      type: FLOAT
    }
    attribute {
      name: "momentum"
      f: 0.9
      type: FLOAT
    }
  }
  node {
    input: "267"
    input: "262"
    output: "268"
    op_type: "Add"
  }
  node {
    input: "268"
    output: "269"
    op_type: "Relu"
  }
  node {
    input: "269"
    input: "19"
    output: "270"
    op_type: "Conv"
    attribute {
      name: "dilations"
      ints: 1
      ints: 1
      type: INTS
    }
    attribute {
      name: "group"
      i: 1
      type: INT
    }
    attribute {
      name: "kernel_shape"
      ints: 3
      ints: 3
      type: INTS
    }
    attribute {
      name: "pads"
      ints: 1
      ints: 1
      ints: 1
      ints: 1
      type: INTS
    }
    attribute {
      name: "strides"
      ints: 1
      ints: 1
      type: INTS
    }
  }
  node {
    input: "270"
    input: "20"
    input: "21"
    input: "22"
    input: "23"
    output: "271"
    op_type: "BatchNormalization"
    attribute {
      name: "epsilon"
      f: 1e-05
      type: FLOAT
    }
    attribute {
      name: "momentum"
      f: 0.9
      type: FLOAT
    }
  }
  node {
    input: "271"
    output: "272"
    op_type: "Relu"
  }
  node {
    input: "272"
    input: "25"
    output: "273"
    op_type: "Conv"
    attribute {
      name: "dilations"
      ints: 1
      ints: 1
      type: INTS
    }
    attribute {
      name: "group"
      i: 1
      type: INT
    }
    attribute {
      name: "kernel_shape"
      ints: 3
      ints: 3
      type: INTS
    }
    attribute {
      name: "pads"
      ints: 1
      ints: 1
      ints: 1
      ints: 1
      type: INTS
    }
    attribute {
      name: "strides"
      ints: 1
      ints: 1
      type: INTS
    }
  }
  node {
    input: "273"
    input: "26"
    input: "27"
    input: "28"
    input: "29"
    output: "274"
    op_type: "BatchNormalization"
    attribute {
      name: "epsilon"
      f: 1e-05
      type: FLOAT
    }
    attribute {
      name: "momentum"
      f: 0.9
      type: FLOAT
    }
  }
  node {
    input: "274"
    input: "269"
    output: "275"
    op_type: "Add"
  }
  node {
    input: "275"
    output: "276"
    op_type: "Relu"
  }
  node {
    input: "276"
    input: "31"
    output: "277"
    op_type: "Conv"
    attribute {
      name: "dilations"
      ints: 1
      ints: 1
      type: INTS
    }
    attribute {
      name: "group"
      i: 1
      type: INT
    }
    attribute {
      name: "kernel_shape"
      ints: 3
      ints: 3
      type: INTS
    }
    attribute {
      name: "pads"
      ints: 1
      ints: 1
      ints: 1
      ints: 1
      type: INTS
    }
    attribute {
      name: "strides"
      ints: 2
      ints: 2
      type: INTS
    }
  }
  node {
    input: "277"
    input: "32"
    input: "33"
    input: "34"
    input: "35"
    output: "278"
    op_type: "BatchNormalization"
    attribute {
      name: "epsilon"
      f: 1e-05
      type: FLOAT
    }
    attribute {
      name: "momentum"
      f: 0.9
      type: FLOAT
    }
  }
  node {
    input: "278"
    output: "279"
    op_type: "Relu"
  }
  node {
    input: "279"
    input: "37"
    output: "280"
    op_type: "Conv"
    attribute {
      name: "dilations"
      ints: 1
      ints: 1
      type: INTS
    }
    attribute {
      name: "group"
      i: 1
      type: INT
    }
    attribute {
      name: "kernel_shape"
      ints: 3
      ints: 3
      type: INTS
    }
    attribute {
      name: "pads"
      ints: 1
      ints: 1
      ints: 1
      ints: 1
      type: INTS
    }
    attribute {
      name: "strides"
      ints: 1
      ints: 1
      type: INTS
    }
  }
  node {
    input: "280"
    input: "38"
    input: "39"
    input: "40"
    input: "41"
    output: "281"
    op_type: "BatchNormalization"
    attribute {
      name: "epsilon"
      f: 1e-05
      type: FLOAT
    }
    attribute {
      name: "momentum"
      f: 0.9
      type: FLOAT
    }
  }
  node {
    input: "276"
    input: "43"
    output: "282"
    op_type: "Conv"
    attribute {
      name: "dilations"
      ints: 1
      ints: 1
      type: INTS
    }
    attribute {
      name: "group"
      i: 1
      type: INT
    }
    attribute {
      name: "kernel_shape"
      ints: 1
      ints: 1
      type: INTS
    }
    attribute {
      name: "pads"
      ints: 0
      ints: 0
      ints: 0
      ints: 0
      type: INTS
    }
    attribute {
      name: "strides"
      ints: 2
      ints: 2
      type: INTS
    }
  }
  node {
    input: "282"
    input: "44"
    input: "45"
    input: "46"
    input: "47"
    output: "283"
    op_type: "BatchNormalization"
    attribute {
      name: "epsilon"
      f: 1e-05
      type: FLOAT
    }
    attribute {
      name: "momentum"
      f: 0.9
      type: FLOAT
    }
  }
  node {
    input: "281"
    input: "283"
    output: "284"
    op_type: "Add"
  }
  node {
    input: "284"
    output: "285"
    op_type: "Relu"
  }
  node {
    input: "285"
    input: "49"
    output: "286"
    op_type: "Conv"
    attribute {
      name: "dilations"
      ints: 1
      ints: 1
      type: INTS
    }
    attribute {
      name: "group"
      i: 1
      type: INT
    }
    attribute {
      name: "kernel_shape"
      ints: 3
      ints: 3
      type: INTS
    }
    attribute {
      name: "pads"
      ints: 1
      ints: 1
      ints: 1
      ints: 1
      type: INTS
    }
    attribute {
      name: "strides"
      ints: 1
      ints: 1
      type: INTS
    }
  }
  node {
    input: "286"
    input: "50"
    input: "51"
    input: "52"
    input: "53"
    output: "287"
    op_type: "BatchNormalization"
    attribute {
      name: "epsilon"
      f: 1e-05
      type: FLOAT
    }
    attribute {
      name: "momentum"
      f: 0.9
      type: FLOAT
    }
  }
  node {
    input: "287"
    output: "288"
    op_type: "Relu"
  }
  node {
    input: "288"
    input: "55"
    output: "289"
    op_type: "Conv"
    attribute {
      name: "dilations"
      ints: 1
      ints: 1
      type: INTS
    }
    attribute {
      name: "group"
      i: 1
      type: INT
    }
    attribute {
      name: "kernel_shape"
      ints: 3
      ints: 3
      type: INTS
    }
    attribute {
      name: "pads"
      ints: 1
      ints: 1
      ints: 1
      ints: 1
      type: INTS
    }
    attribute {
      name: "strides"
      ints: 1
      ints: 1
      type: INTS
    }
  }
  node {
    input: "289"
    input: "56"
    input: "57"
    input: "58"
    input: "59"
    output: "290"
    op_type: "BatchNormalization"
    attribute {
      name: "epsilon"
      f: 1e-05
      type: FLOAT
    }
    attribute {
      name: "momentum"
      f: 0.9
      type: FLOAT
    }
  }
  node {
    input: "290"
    input: "285"
    output: "291"
    op_type: "Add"
  }
  node {
    input: "291"
    output: "292"
    op_type: "Relu"
  }
  node {
    input: "292"
    input: "61"
    output: "293"
    op_type: "Conv"
    attribute {
      name: "dilations"
      ints: 1
      ints: 1
      type: INTS
    }
    attribute {
      name: "group"
      i: 1
      type: INT
    }
    attribute {
      name: "kernel_shape"
      ints: 3
      ints: 3
      type: INTS
    }
    attribute {
      name: "pads"
      ints: 1
      ints: 1
      ints: 1
      ints: 1
      type: INTS
    }
    attribute {
      name: "strides"
      ints: 2
      ints: 2
      type: INTS
    }
  }
  node {
    input: "293"
    input: "62"
    input: "63"
    input: "64"
    input: "65"
    output: "294"
    op_type: "BatchNormalization"
    attribute {
      name: "epsilon"
      f: 1e-05
      type: FLOAT
    }
    attribute {
      name: "momentum"
      f: 0.9
      type: FLOAT
    }
  }
  node {
    input: "294"
    output: "295"
    op_type: "Relu"
  }
  node {
    input: "295"
    input: "67"
    output: "296"
    op_type: "Conv"
    attribute {
      name: "dilations"
      ints: 1
      ints: 1
      type: INTS
    }
    attribute {
      name: "group"
      i: 1
      type: INT
    }
    attribute {
      name: "kernel_shape"
      ints: 3
      ints: 3
      type: INTS
    }
    attribute {
      name: "pads"
      ints: 1
      ints: 1
      ints: 1
      ints: 1
      type: INTS
    }
    attribute {
      name: "strides"
      ints: 1
      ints: 1
      type: INTS
    }
  }
  node {
    input: "296"
    input: "68"
    input: "69"
    input: "70"
    input: "71"
    output: "297"
    op_type: "BatchNormalization"
    attribute {
      name: "epsilon"
      f: 1e-05
      type: FLOAT
    }
    attribute {
      name: "momentum"
      f: 0.9
      type: FLOAT
    }
  }
  node {
    input: "292"
    input: "73"
    output: "298"
    op_type: "Conv"
    attribute {
      name: "dilations"
      ints: 1
      ints: 1
      type: INTS
    }
    attribute {
      name: "group"
      i: 1
      type: INT
    }
    attribute {
      name: "kernel_shape"
      ints: 1
      ints: 1
      type: INTS
    }
    attribute {
      name: "pads"
      ints: 0
      ints: 0
      ints: 0
      ints: 0
      type: INTS
    }
    attribute {
      name: "strides"
      ints: 2
      ints: 2
      type: INTS
    }
  }
  node {
    input: "298"
    input: "74"
    input: "75"
    input: "76"
    input: "77"
    output: "299"
    op_type: "BatchNormalization"
    attribute {
      name: "epsilon"
      f: 1e-05
      type: FLOAT
    }
    attribute {
      name: "momentum"
      f: 0.9
      type: FLOAT
    }
  }
  node {
    input: "297"
    input: "299"
    output: "300"
    op_type: "Add"
  }
  node {
    input: "300"
    output: "301"
    op_type: "Relu"
  }
  node {
    input: "301"
    input: "79"
    output: "302"
    op_type: "Conv"
    attribute {
      name: "dilations"
      ints: 1
      ints: 1
      type: INTS
    }
    attribute {
      name: "group"
      i: 1
      type: INT
    }
    attribute {
      name: "kernel_shape"
      ints: 3
      ints: 3
      type: INTS
    }
    attribute {
      name: "pads"
      ints: 1
      ints: 1
      ints: 1
      ints: 1
      type: INTS
    }
    attribute {
      name: "strides"
      ints: 1
      ints: 1
      type: INTS
    }
  }
  node {
    input: "302"
    input: "80"
    input: "81"
    input: "82"
    input: "83"
    output: "303"
    op_type: "BatchNormalization"
    attribute {
      name: "epsilon"
      f: 1e-05
      type: FLOAT
    }
    attribute {
      name: "momentum"
      f: 0.9
      type: FLOAT
    }
  }
  node {
    input: "303"
    output: "304"
    op_type: "Relu"
  }
  node {
    input: "304"
    input: "85"
    output: "305"
    op_type: "Conv"
    attribute {
      name: "dilations"
      ints: 1
      ints: 1
      type: INTS
    }
    attribute {
      name: "group"
      i: 1
      type: INT
    }
    attribute {
      name: "kernel_shape"
      ints: 3
      ints: 3
      type: INTS
    }
    attribute {
      name: "pads"
      ints: 1
      ints: 1
      ints: 1
      ints: 1
      type: INTS
    }
    attribute {
      name: "strides"
      ints: 1
      ints: 1
      type: INTS
    }
  }
  node {
    input: "305"
    input: "86"
    input: "87"
    input: "88"
    input: "89"
    output: "306"
    op_type: "BatchNormalization"
    attribute {
      name: "epsilon"
      f: 1e-05
      type: FLOAT
    }
    attribute {
      name: "momentum"
      f: 0.9
      type: FLOAT
    }
  }
  node {
    input: "306"
    input: "301"
    output: "307"
    op_type: "Add"
  }
  node {
    input: "307"
    output: "308"
    op_type: "Relu"
  }
  node {
    input: "308"
    input: "91"
    output: "309"
    op_type: "Conv"
    attribute {
      name: "dilations"
      ints: 1
      ints: 1
      type: INTS
    }
    attribute {
      name: "group"
      i: 1
      type: INT
    }
    attribute {
      name: "kernel_shape"
      ints: 3
      ints: 3
      type: INTS
    }
    attribute {
      name: "pads"
      ints: 1
      ints: 1
      ints: 1
      ints: 1
      type: INTS
    }
    attribute {
      name: "strides"
      ints: 2
      ints: 2
      type: INTS
    }
  }
  node {
    input: "309"
    input: "92"
    input: "93"
    input: "94"
    input: "95"
    output: "310"
    op_type: "BatchNormalization"
    attribute {
      name: "epsilon"
      f: 1e-05
      type: FLOAT
    }
    attribute {
      name: "momentum"
      f: 0.9
      type: FLOAT
    }
  }
  node {
    input: "310"
    output: "311"
    op_type: "Relu"
  }
  node {
    input: "311"
    input: "97"
    output: "312"
    op_type: "Conv"
    attribute {
      name: "dilations"
      ints: 1
      ints: 1
      type: INTS
    }
    attribute {
      name: "group"
      i: 1
      type: INT
    }
    attribute {
      name: "kernel_shape"
      ints: 3
      ints: 3
      type: INTS
    }
    attribute {
      name: "pads"
      ints: 1
      ints: 1
      ints: 1
      ints: 1
      type: INTS
    }
    attribute {
      name: "strides"
      ints: 1
      ints: 1
      type: INTS
    }
  }
  node {
    input: "312"
    input: "98"
    input: "99"
    input: "100"
    input: "101"
    output: "313"
    op_type: "BatchNormalization"
    attribute {
      name: "epsilon"
      f: 1e-05
      type: FLOAT
    }
    attribute {
      name: "momentum"
      f: 0.9
      type: FLOAT
    }
  }
  node {
    input: "308"
    input: "103"
    output: "314"
    op_type: "Conv"
    attribute {
      name: "dilations"
      ints: 1
      ints: 1
      type: INTS
    }
    attribute {
      name: "group"
      i: 1
      type: INT
    }
    attribute {
      name: "kernel_shape"
      ints: 1
      ints: 1
      type: INTS
    }
    attribute {
      name: "pads"
      ints: 0
      ints: 0
      ints: 0
      ints: 0
      type: INTS
    }
    attribute {
      name: "strides"
      ints: 2
      ints: 2
      type: INTS
    }
  }
  node {
    input: "314"
    input: "104"
    input: "105"
    input: "106"
    input: "107"
    output: "315"
    op_type: "BatchNormalization"
    attribute {
      name: "epsilon"
      f: 1e-05
      type: FLOAT
    }
    attribute {
      name: "momentum"
      f: 0.9
      type: FLOAT
    }
  }
  node {
    input: "313"
    input: "315"
    output: "316"
    op_type: "Add"
  }
  node {
    input: "316"
    output: "317"
    op_type: "Relu"
  }
  node {
    input: "317"
    input: "109"
    output: "318"
    op_type: "Conv"
    attribute {
      name: "dilations"
      ints: 1
      ints: 1
      type: INTS
    }
    attribute {
      name: "group"
      i: 1
      type: INT
    }
    attribute {
      name: "kernel_shape"
      ints: 3
      ints: 3
      type: INTS
    }
    attribute {
      name: "pads"
      ints: 1
      ints: 1
      ints: 1
      ints: 1
      type: INTS
    }
    attribute {
      name: "strides"
      ints: 1
      ints: 1
      type: INTS
    }
  }
  node {
    input: "318"
    input: "110"
    input: "111"
    input: "112"
    input: "113"
    output: "319"
    op_type: "BatchNormalization"
    attribute {
      name: "epsilon"
      f: 1e-05
      type: FLOAT
    }
    attribute {
      name: "momentum"
      f: 0.9
      type: FLOAT
    }
  }
  node {
    input: "319"
    output: "320"
    op_type: "Relu"
  }
  node {
    input: "320"
    input: "115"
    output: "321"
    op_type: "Conv"
    attribute {
      name: "dilations"
      ints: 1
      ints: 1
      type: INTS
    }
    attribute {
      name: "group"
      i: 1
      type: INT
    }
    attribute {
      name: "kernel_shape"
      ints: 3
      ints: 3
      type: INTS
    }
    attribute {
      name: "pads"
      ints: 1
      ints: 1
      ints: 1
      ints: 1
      type: INTS
    }
    attribute {
      name: "strides"
      ints: 1
      ints: 1
      type: INTS
    }
  }
  node {
    input: "321"
    input: "116"
    input: "117"
    input: "118"
    input: "119"
    output: "322"
    op_type: "BatchNormalization"
    attribute {
      name: "epsilon"
      f: 1e-05
      type: FLOAT
    }
    attribute {
      name: "momentum"
      f: 0.9
      type: FLOAT
    }
  }
  node {
    input: "322"
    input: "317"
    output: "323"
    op_type: "Add"
  }
  node {
    input: "323"
    output: "324"
    op_type: "Relu"
  }
  node {
    input: "292"
    input: "121"
    output: "325"
    op_type: "Conv"
    attribute {
      name: "dilations"
      ints: 1
      ints: 1
      type: INTS
    }
    attribute {
      name: "group"
      i: 1
      type: INT
    }
    attribute {
      name: "kernel_shape"
      ints: 1
      ints: 1
      type: INTS
    }
    attribute {
      name: "pads"
      ints: 0
      ints: 0
      ints: 0
      ints: 0
      type: INTS
    }
    attribute {
      name: "strides"
      ints: 1
      ints: 1
      type: INTS
    }
  }
  node {
    input: "325"
    input: "122"
    input: "123"
    input: "124"
    input: "125"
    output: "326"
    op_type: "BatchNormalization"
    attribute {
      name: "epsilon"
      f: 1e-05
      type: FLOAT
    }
    attribute {
      name: "momentum"
      f: 0.9
      type: FLOAT
    }
  }
  node {
    input: "326"
    output: "327"
    op_type: "LeakyRelu"
    attribute {
      name: "alpha"
      f: 0
      type: FLOAT
    }
  }
  node {
    input: "308"
    input: "127"
    output: "328"
    op_type: "Conv"
    attribute {
      name: "dilations"
      ints: 1
      ints: 1
      type: INTS
    }
    attribute {
      name: "group"
      i: 1
      type: INT
    }
    attribute {
      name: "kernel_shape"
      ints: 1
      ints: 1
      type: INTS
    }
    attribute {
      name: "pads"
      ints: 0
      ints: 0
      ints: 0
      ints: 0
      type: INTS
    }
    attribute {
      name: "strides"
      ints: 1
      ints: 1
      type: INTS
    }
  }
  node {
    input: "328"
    input: "128"
    input: "129"
    input: "130"
    input: "131"
    output: "329"
    op_type: "BatchNormalization"
    attribute {
      name: "epsilon"
      f: 1e-05
      type: FLOAT
    }
    attribute {
      name: "momentum"
      f: 0.9
      type: FLOAT
    }
  }
  node {
    input: "329"
    output: "330"
    op_type: "LeakyRelu"
    attribute {
      name: "alpha"
      f: 0
      type: FLOAT
    }
  }
  node {
    input: "324"
    input: "133"
    output: "331"
    op_type: "Conv"
    attribute {
      name: "dilations"
      ints: 1
      ints: 1
      type: INTS
    }
    attribute {
      name: "group"
      i: 1
      type: INT
    }
    attribute {
      name: "kernel_shape"
      ints: 1
      ints: 1
      type: INTS
    }
    attribute {
      name: "pads"
      ints: 0
      ints: 0
      ints: 0
      ints: 0
      type: INTS
    }
    attribute {
      name: "strides"
      ints: 1
      ints: 1
      type: INTS
    }
  }
  node {
    input: "331"
    input: "134"
    input: "135"
    input: "136"
    input: "137"
    output: "332"
    op_type: "BatchNormalization"
    attribute {
      name: "epsilon"
      f: 1e-05
      type: FLOAT
    }
    attribute {
      name: "momentum"
      f: 0.9
      type: FLOAT
    }
  }
  node {
    input: "332"
    output: "333"
    op_type: "LeakyRelu"
    attribute {
      name: "alpha"
      f: 0
      type: FLOAT
    }
  }
  node {
    output: "334"
    op_type: "Constant"
    attribute {
      name: "value"
      t {
        dims: 2
        data_type: 7
        raw_data: "(\000\000\000\000\000\000\000(\000\000\000\000\000\000\000"
      }
      type: TENSOR
    }
  }
  node {
    output: "335"
    op_type: "Constant"
    attribute {
      name: "value"
      t {
        dims: 0
        data_type: 1
        raw_data: ""
      }
      type: TENSOR
    }
  }
  node {
    input: "333"
    output: "336"
    op_type: "Shape"
  }
  node {
    output: "337"
    op_type: "Constant"
    attribute {
      name: "value"
      t {
        dims: 1
        data_type: 7
        raw_data: "\000\000\000\000\000\000\000\000"
      }
      type: TENSOR
    }
  }
  node {
    output: "338"
    op_type: "Constant"
    attribute {
      name: "value"
      t {
        dims: 1
        data_type: 7
        raw_data: "\000\000\000\000\000\000\000\000"
      }
      type: TENSOR
    }
  }
  node {
    output: "339"
    op_type: "Constant"
    attribute {
      name: "value"
      t {
        dims: 1
        data_type: 7
        raw_data: "\002\000\000\000\000\000\000\000"
      }
      type: TENSOR
    }
  }
  node {
    input: "336"
    input: "338"
    input: "339"
    input: "337"
    output: "340"
    op_type: "Slice"
  }
  node {
    input: "334"
    output: "341"
    op_type: "Cast"
    attribute {
      name: "to"
      i: 7
      type: INT
    }
  }
  node {
    input: "340"
    input: "341"
    output: "342"
    op_type: "Concat"
    attribute {
      name: "axis"
      i: 0
      type: INT
    }
  }
  node {
    input: "333"
    input: "335"
    input: "335"
    input: "342"
    output: "343"
    op_type: "Resize"
    attribute {
      name: "coordinate_transformation_mode"
      s: "asymmetric"
      type: STRING
    }
    attribute {
      name: "cubic_coeff_a"
      f: -0.75
      type: FLOAT
    }
    attribute {
      name: "mode"
      s: "nearest"
      type: STRING
    }
    attribute {
      name: "nearest_mode"
      s: "floor"
      type: STRING
    }
  }
  node {
    input: "330"
    input: "343"
    output: "344"
    op_type: "Add"
  }
  node {
    input: "344"
    input: "145"
    output: "345"
    op_type: "Conv"
    attribute {
      name: "dilations"
      ints: 1
      ints: 1
      type: INTS
    }
    attribute {
      name: "group"
      i: 1
      type: INT
    }
    attribute {
      name: "kernel_shape"
      ints: 3
      ints: 3
      type: INTS
    }
    attribute {
      name: "pads"
      ints: 1
      ints: 1
      ints: 1
      ints: 1
      type: INTS
    }
    attribute {
      name: "strides"
      ints: 1
      ints: 1
      type: INTS
    }
  }
  node {
    input: "345"
    input: "146"
    input: "147"
    input: "148"
    input: "149"
    output: "346"
    op_type: "BatchNormalization"
    attribute {
      name: "epsilon"
      f: 1e-05
      type: FLOAT
    }
    attribute {
      name: "momentum"
      f: 0.9
      type: FLOAT
    }
  }
  node {
    input: "346"
    output: "347"
    op_type: "LeakyRelu"
    attribute {
      name: "alpha"
      f: 0
      type: FLOAT
    }
  }
  node {
    output: "348"
    op_type: "Constant"
    attribute {
      name: "value"
      t {
        dims: 2
        data_type: 7
        raw_data: "P\000\000\000\000\000\000\000P\000\000\000\000\000\000\000"
      }
      type: TENSOR
    }
  }
  node {
    output: "349"
    op_type: "Constant"
    attribute {
      name: "value"
      t {
        dims: 0
        data_type: 1
        raw_data: ""
      }
      type: TENSOR
    }
  }
  node {
    input: "347"
    output: "350"
    op_type: "Shape"
  }
  node {
    output: "351"
    op_type: "Constant"
    attribute {
      name: "value"
      t {
        dims: 1
        data_type: 7
        raw_data: "\000\000\000\000\000\000\000\000"
      }
      type: TENSOR
    }
  }
  node {
    output: "352"
    op_type: "Constant"
    attribute {
      name: "value"
      t {
        dims: 1
        data_type: 7
        raw_data: "\000\000\000\000\000\000\000\000"
      }
      type: TENSOR
    }
  }
  node {
    output: "353"
    op_type: "Constant"
    attribute {
      name: "value"
      t {
        dims: 1
        data_type: 7
        raw_data: "\002\000\000\000\000\000\000\000"
      }
      type: TENSOR
    }
  }
  node {
    input: "350"
    input: "352"
    input: "353"
    input: "351"
    output: "354"
    op_type: "Slice"
  }
  node {
    input: "348"
    output: "355"
    op_type: "Cast"
    attribute {
      name: "to"
      i: 7
      type: INT
    }
  }
  node {
    input: "354"
    input: "355"
    output: "356"
    op_type: "Concat"
    attribute {
      name: "axis"
      i: 0
      type: INT
    }
  }
  node {
    input: "347"
    input: "349"
    input: "349"
    input: "356"
    output: "357"
    op_type: "Resize"
    attribute {
      name: "coordinate_transformation_mode"
      s: "asymmetric"
      type: STRING
    }
    attribute {
      name: "cubic_coeff_a"
      f: -0.75
      type: FLOAT
    }
    attribute {
      name: "mode"
      s: "nearest"
      type: STRING
    }
    attribute {
      name: "nearest_mode"
      s: "floor"
      type: STRING
    }
  }
  node {
    input: "327"
    input: "357"
    output: "358"
    op_type: "Add"
  }
  node {
    input: "358"
    input: "139"
    output: "359"
    op_type: "Conv"
    attribute {
      name: "dilations"
      ints: 1
      ints: 1
      type: INTS
    }
    attribute {
      name: "group"
      i: 1
      type: INT
    }
    attribute {
      name: "kernel_shape"
      ints: 3
      ints: 3
      type: INTS
    }
    attribute {
      name: "pads"
      ints: 1
      ints: 1
      ints: 1
      ints: 1
      type: INTS
    }
    attribute {
      name: "strides"
      ints: 1
      ints: 1
      type: INTS
    }
  }
  node {
    input: "359"
    input: "140"
    input: "141"
    input: "142"
    input: "143"
    output: "360"
    op_type: "BatchNormalization"
    attribute {
      name: "epsilon"
      f: 1e-05
      type: FLOAT
    }
    attribute {
      name: "momentum"
      f: 0.9
      type: FLOAT
    }
  }
  node {
    input: "360"
    output: "361"
    op_type: "LeakyRelu"
    attribute {
      name: "alpha"
      f: 0
      type: FLOAT
    }
  }
  node {
    input: "361"
    input: "151"
    output: "362"
    op_type: "Conv"
    attribute {
      name: "dilations"
      ints: 1
      ints: 1
      type: INTS
    }
    attribute {
      name: "group"
      i: 1
      type: INT
    }
    attribute {
      name: "kernel_shape"
      ints: 3
      ints: 3
      type: INTS
    }
    attribute {
      name: "pads"
      ints: 1
      ints: 1
      ints: 1
      ints: 1
      type: INTS
    }
    attribute {
      name: "strides"
      ints: 1
      ints: 1
      type: INTS
    }
  }
  node {
    input: "362"
    input: "152"
    input: "153"
    input: "154"
    input: "155"
    output: "363"
    op_type: "BatchNormalization"
    attribute {
      name: "epsilon"
      f: 1e-05
      type: FLOAT
    }
    attribute {
      name: "momentum"
      f: 0.9
      type: FLOAT
    }
  }
  node {
    input: "361"
    input: "157"
    output: "364"
    op_type: "Conv"
    attribute {
      name: "dilations"
      ints: 1
      ints: 1
      type: INTS
    }
    attribute {
      name: "group"
      i: 1
      type: INT
    }
    attribute {
      name: "kernel_shape"
      ints: 3
      ints: 3
      type: INTS
    }
    attribute {
      name: "pads"
      ints: 1
      ints: 1
      ints: 1
      ints: 1
      type: INTS
    }
    attribute {
      name: "strides"
      ints: 1
      ints: 1
      type: INTS
    }
  }
  node {
    input: "364"
    input: "158"
    input: "159"
    input: "160"
    input: "161"
    output: "365"
    op_type: "BatchNormalization"
    attribute {
      name: "epsilon"
      f: 1e-05
      type: FLOAT
    }
    attribute {
      name: "momentum"
      f: 0.9
      type: FLOAT
    }
  }
  node {
    input: "365"
    output: "366"
    op_type: "LeakyRelu"
    attribute {
      name: "alpha"
      f: 0
      type: FLOAT
    }
  }
  node {
    input: "366"
    input: "163"
    output: "367"
    op_type: "Conv"
    attribute {
      name: "dilations"
      ints: 1
      ints: 1
      type: INTS
    }
    attribute {
      name: "group"
      i: 1
      type: INT
    }
    attribute {
      name: "kernel_shape"
      ints: 3
      ints: 3
      type: INTS
    }
    attribute {
      name: "pads"
      ints: 1
      ints: 1
      ints: 1
      ints: 1
      type: INTS
    }
    attribute {
      name: "strides"
      ints: 1
      ints: 1
      type: INTS
    }
  }
  node {
    input: "367"
    input: "164"
    input: "165"
    input: "166"
    input: "167"
    output: "368"
    op_type: "BatchNormalization"
    attribute {
      name: "epsilon"
      f: 1e-05
      type: FLOAT
    }
    attribute {
      name: "momentum"
      f: 0.9
      type: FLOAT
    }
  }
  node {
    input: "366"
    input: "169"
    output: "369"
    op_type: "Conv"
    attribute {
      name: "dilations"
      ints: 1
      ints: 1
      type: INTS
    }
    attribute {
      name: "group"
      i: 1
      type: INT
    }
    attribute {
      name: "kernel_shape"
      ints: 3
      ints: 3
      type: INTS
    }
    attribute {
      name: "pads"
      ints: 1
      ints: 1
      ints: 1
      ints: 1
      type: INTS
    }
    attribute {
      name: "strides"
      ints: 1
      ints: 1
      type: INTS
    }
  }
  node {
    input: "369"
    input: "170"
    input: "171"
    input: "172"
    input: "173"
    output: "370"
    op_type: "BatchNormalization"
    attribute {
      name: "epsilon"
      f: 1e-05
      type: FLOAT
    }
    attribute {
      name: "momentum"
      f: 0.9
      type: FLOAT
    }
  }
  node {
    input: "370"
    output: "371"
    op_type: "LeakyRelu"
    attribute {
      name: "alpha"
      f: 0
      type: FLOAT
    }
  }
  node {
    input: "371"
    input: "175"
    output: "372"
    op_type: "Conv"
    attribute {
      name: "dilations"
      ints: 1
      ints: 1
      type: INTS
    }
    attribute {
      name: "group"
      i: 1
      type: INT
    }
    attribute {
      name: "kernel_shape"
      ints: 3
      ints: 3
      type: INTS
    }
    attribute {
      name: "pads"
      ints: 1
      ints: 1
      ints: 1
      ints: 1
      type: INTS
    }
    attribute {
      name: "strides"
      ints: 1
      ints: 1
      type: INTS
    }
  }
  node {
    input: "372"
    input: "176"
    input: "177"
    input: "178"
    input: "179"
    output: "373"
    op_type: "BatchNormalization"
    attribute {
      name: "epsilon"
      f: 1e-05
      type: FLOAT
    }
    attribute {
      name: "momentum"
      f: 0.9
      type: FLOAT
    }
  }
  node {
    input: "363"
    input: "368"
    input: "373"
    output: "374"
    op_type: "Concat"
    attribute {
      name: "axis"
      i: 1
      type: INT
    }
  }
  node {
    input: "374"
    output: "375"
    op_type: "Relu"
  }
  node {
    input: "347"
    input: "181"
    output: "376"
    op_type: "Conv"
    attribute {
      name: "dilations"
      ints: 1
      ints: 1
      type: INTS
    }
    attribute {
      name: "group"
      i: 1
      type: INT
    }
    attribute {
      name: "kernel_shape"
      ints: 3
      ints: 3
      type: INTS
    }
    attribute {
      name: "pads"
      ints: 1
      ints: 1
      ints: 1
      ints: 1
      type: INTS
    }
    attribute {
      name: "strides"
      ints: 1
      ints: 1
      type: INTS
    }
  }
  node {
    input: "376"
    input: "182"
    input: "183"
    input: "184"
    input: "185"
    output: "377"
    op_type: "BatchNormalization"
    attribute {
      name: "epsilon"
      f: 1e-05
      type: FLOAT
    }
    attribute {
      name: "momentum"
      f: 0.9
      type: FLOAT
    }
  }
  node {
    input: "347"
    input: "187"
    output: "378"
    op_type: "Conv"
    attribute {
      name: "dilations"
      ints: 1
      ints: 1
      type: INTS
    }
    attribute {
      name: "group"
      i: 1
      type: INT
    }
    attribute {
      name: "kernel_shape"
      ints: 3
      ints: 3
      type: INTS
    }
    attribute {
      name: "pads"
      ints: 1
      ints: 1
      ints: 1
      ints: 1
      type: INTS
    }
    attribute {
      name: "strides"
      ints: 1
      ints: 1
      type: INTS
    }
  }
  node {
    input: "378"
    input: "188"
    input: "189"
    input: "190"
    input: "191"
    output: "379"
    op_type: "BatchNormalization"
    attribute {
      name: "epsilon"
      f: 1e-05
      type: FLOAT
    }
    attribute {
      name: "momentum"
      f: 0.9
      type: FLOAT
    }
  }
  node {
    input: "379"
    output: "380"
    op_type: "LeakyRelu"
    attribute {
      name: "alpha"
      f: 0
      type: FLOAT
    }
  }
  node {
    input: "380"
    input: "193"
    output: "381"
    op_type: "Conv"
    attribute {
      name: "dilations"
      ints: 1
      ints: 1
      type: INTS
    }
    attribute {
      name: "group"
      i: 1
      type: INT
    }
    attribute {
      name: "kernel_shape"
      ints: 3
      ints: 3
      type: INTS
    }
    attribute {
      name: "pads"
      ints: 1
      ints: 1
      ints: 1
      ints: 1
      type: INTS
    }
    attribute {
      name: "strides"
      ints: 1
      ints: 1
      type: INTS
    }
  }
  node {
    input: "381"
    input: "194"
    input: "195"
    input: "196"
    input: "197"
    output: "382"
    op_type: "BatchNormalization"
    attribute {
      name: "epsilon"
      f: 1e-05
      type: FLOAT
    }
    attribute {
      name: "momentum"
      f: 0.9
      type: FLOAT
    }
  }
  node {
    input: "380"
    input: "199"
    output: "383"
    op_type: "Conv"
    attribute {
      name: "dilations"
      ints: 1
      ints: 1
      type: INTS
    }
    attribute {
      name: "group"
      i: 1
      type: INT
    }
    attribute {
      name: "kernel_shape"
      ints: 3
      ints: 3
      type: INTS
    }
    attribute {
      name: "pads"
      ints: 1
      ints: 1
      ints: 1
      ints: 1
      type: INTS
    }
    attribute {
      name: "strides"
      ints: 1
      ints: 1
      type: INTS
    }
  }
  node {
    input: "383"
    input: "200"
    input: "201"
    input: "202"
    input: "203"
    output: "384"
    op_type: "BatchNormalization"
    attribute {
      name: "epsilon"
      f: 1e-05
      type: FLOAT
    }
    attribute {
      name: "momentum"
      f: 0.9
      type: FLOAT
    }
  }
  node {
    input: "384"
    output: "385"
    op_type: "LeakyRelu"
    attribute {
      name: "alpha"
      f: 0
      type: FLOAT
    }
  }
  node {
    input: "385"
    input: "205"
    output: "386"
    op_type: "Conv"
    attribute {
      name: "dilations"
      ints: 1
      ints: 1
      type: INTS
    }
    attribute {
      name: "group"
      i: 1
      type: INT
    }
    attribute {
      name: "kernel_shape"
      ints: 3
      ints: 3
      type: INTS
    }
    attribute {
      name: "pads"
      ints: 1
      ints: 1
      ints: 1
      ints: 1
      type: INTS
    }
    attribute {
      name: "strides"
      ints: 1
      ints: 1
      type: INTS
    }
  }
  node {
    input: "386"
    input: "206"
    input: "207"
    input: "208"
    input: "209"
    output: "387"
    op_type: "BatchNormalization"
    attribute {
      name: "epsilon"
      f: 1e-05
      type: FLOAT
    }
    attribute {
      name: "momentum"
      f: 0.9
      type: FLOAT
    }
  }
  node {
    input: "377"
    input: "382"
    input: "387"
    output: "388"
    op_type: "Concat"
    attribute {
      name: "axis"
      i: 1
      type: INT
    }
  }
  node {
    input: "388"
    output: "389"
    op_type: "Relu"
  }
  node {
    input: "333"
    input: "211"
    output: "390"
    op_type: "Conv"
    attribute {
      name: "dilations"
      ints: 1
      ints: 1
      type: INTS
    }
    attribute {
      name: "group"
      i: 1
      type: INT
    }
    attribute {
      name: "kernel_shape"
      ints: 3
      ints: 3
      type: INTS
    }
    attribute {
      name: "pads"
      ints: 1
      ints: 1
      ints: 1
      ints: 1
      type: INTS
    }
    attribute {
      name: "strides"
      ints: 1
      ints: 1
      type: INTS
    }
  }
  node {
    input: "390"
    input: "212"
    input: "213"
    input: "214"
    input: "215"
    output: "391"
    op_type: "BatchNormalization"
    attribute {
      name: "epsilon"
      f: 1e-05
      type: FLOAT
    }
    attribute {
      name: "momentum"
      f: 0.9
      type: FLOAT
    }
  }
  node {
    input: "333"
    input: "217"
    output: "392"
    op_type: "Conv"
    attribute {
      name: "dilations"
      ints: 1
      ints: 1
      type: INTS
    }
    attribute {
      name: "group"
      i: 1
      type: INT
    }
    attribute {
      name: "kernel_shape"
      ints: 3
      ints: 3
      type: INTS
    }
    attribute {
      name: "pads"
      ints: 1
      ints: 1
      ints: 1
      ints: 1
      type: INTS
    }
    attribute {
      name: "strides"
      ints: 1
      ints: 1
      type: INTS
    }
  }
  node {
    input: "392"
    input: "218"
    input: "219"
    input: "220"
    input: "221"
    output: "393"
    op_type: "BatchNormalization"
    attribute {
      name: "epsilon"
      f: 1e-05
      type: FLOAT
    }
    attribute {
      name: "momentum"
      f: 0.9
      type: FLOAT
    }
  }
  node {
    input: "393"
    output: "394"
    op_type: "LeakyRelu"
    attribute {
      name: "alpha"
      f: 0
      type: FLOAT
    }
  }
  node {
    input: "394"
    input: "223"
    output: "395"
    op_type: "Conv"
    attribute {
      name: "dilations"
      ints: 1
      ints: 1
      type: INTS
    }
    attribute {
      name: "group"
      i: 1
      type: INT
    }
    attribute {
      name: "kernel_shape"
      ints: 3
      ints: 3
      type: INTS
    }
    attribute {
      name: "pads"
      ints: 1
      ints: 1
      ints: 1
      ints: 1
      type: INTS
    }
    attribute {
      name: "strides"
      ints: 1
      ints: 1
      type: INTS
    }
  }
  node {
    input: "395"
    input: "224"
    input: "225"
    input: "226"
    input: "227"
    output: "396"
    op_type: "BatchNormalization"
    attribute {
      name: "epsilon"
      f: 1e-05
      type: FLOAT
    }
    attribute {
      name: "momentum"
      f: 0.9
      type: FLOAT
    }
  }
  node {
    input: "394"
    input: "229"
    output: "397"
    op_type: "Conv"
    attribute {
      name: "dilations"
      ints: 1
      ints: 1
      type: INTS
    }
    attribute {
      name: "group"
      i: 1
      type: INT
    }
    attribute {
      name: "kernel_shape"
      ints: 3
      ints: 3
      type: INTS
    }
    attribute {
      name: "pads"
      ints: 1
      ints: 1
      ints: 1
      ints: 1
      type: INTS
    }
    attribute {
      name: "strides"
      ints: 1
      ints: 1
      type: INTS
    }
  }
  node {
    input: "397"
    input: "230"
    input: "231"
    input: "232"
    input: "233"
    output: "398"
    op_type: "BatchNormalization"
    attribute {
      name: "epsilon"
      f: 1e-05
      type: FLOAT
    }
    attribute {
      name: "momentum"
      f: 0.9
      type: FLOAT
    }
  }
  node {
    input: "398"
    output: "399"
    op_type: "LeakyRelu"
    attribute {
      name: "alpha"
      f: 0
      type: FLOAT
    }
  }
  node {
    input: "399"
    input: "235"
    output: "400"
    op_type: "Conv"
    attribute {
      name: "dilations"
      ints: 1
      ints: 1
      type: INTS
    }
    attribute {
      name: "group"
      i: 1
      type: INT
    }
    attribute {
      name: "kernel_shape"
      ints: 3
      ints: 3
      type: INTS
    }
    attribute {
      name: "pads"
      ints: 1
      ints: 1
      ints: 1
      ints: 1
      type: INTS
    }
    attribute {
      name: "strides"
      ints: 1
      ints: 1
      type: INTS
    }
  }
  node {
    input: "400"
    input: "236"
    input: "237"
    input: "238"
    input: "239"
    output: "401"
    op_type: "BatchNormalization"
    attribute {
      name: "epsilon"
      f: 1e-05
      type: FLOAT
    }
    attribute {
      name: "momentum"
      f: 0.9
      type: FLOAT
    }
  }
  node {
    input: "391"
    input: "396"
    input: "401"
    output: "402"
    op_type: "Concat"
    attribute {
      name: "axis"
      i: 1
      type: INT
    }
  }
  node {
    input: "402"
    output: "403"
    op_type: "Relu"
  }
  node {
    input: "375"
    input: "247"
    input: "248"
    output: "404"
    op_type: "Conv"
    attribute {
      name: "dilations"
      ints: 1
      ints: 1
      type: INTS
    }
    attribute {
      name: "group"
      i: 1
      type: INT
    }
    attribute {
      name: "kernel_shape"
      ints: 1
      ints: 1
      type: INTS
    }
    attribute {
      name: "pads"
      ints: 0
      ints: 0
      ints: 0
      ints: 0
      type: INTS
    }
    attribute {
      name: "strides"
      ints: 1
      ints: 1
      type: INTS
    }
  }
  node {
    input: "404"
    output: "405"
    op_type: "Transpose"
    attribute {
      name: "perm"
      ints: 0
      ints: 2
      ints: 3
      ints: 1
      type: INTS
    }
  }
  node {
    input: "405"
    output: "406"
    op_type: "Shape"
  }
  node {
    output: "407"
    op_type: "Constant"
    attribute {
      name: "value"
      t {
        data_type: 7
        raw_data: "\000\000\000\000\000\000\000\000"
      }
      type: TENSOR
    }
  }
  node {
    input: "406"
    input: "407"
    output: "408"
    op_type: "Gather"
    attribute {
      name: "axis"
      i: 0
      type: INT
    }
  }
  node {
    output: "409"
    op_type: "Constant"
    attribute {
      name: "value"
      t {
        data_type: 7
        raw_data: "\377\377\377\377\377\377\377\377"
      }
      type: TENSOR
    }
  }
  node {
    output: "410"
    op_type: "Constant"
    attribute {
      name: "value"
      t {
        data_type: 7
        raw_data: "\004\000\000\000\000\000\000\000"
      }
      type: TENSOR
    }
  }
  node {
    input: "408"
    output: "411"
    op_type: "Unsqueeze"
    attribute {
      name: "axes"
      ints: 0
      type: INTS
    }
  }
  node {
    input: "409"
    output: "412"
    op_type: "Unsqueeze"
    attribute {
      name: "axes"
      ints: 0
      type: INTS
    }
  }
  node {
    input: "410"
    output: "413"
    op_type: "Unsqueeze"
    attribute {
      name: "axes"
      ints: 0
      type: INTS
    }
  }
  node {
    input: "411"
    input: "412"
    input: "413"
    output: "414"
    op_type: "Concat"
    attribute {
      name: "axis"
      i: 0
      type: INT
    }
  }
  node {
    input: "405"
    input: "414"
    output: "415"
    op_type: "Reshape"
  }
  node {
    input: "389"
    input: "249"
    input: "250"
    output: "416"
    op_type: "Conv"
    attribute {
      name: "dilations"
      ints: 1
      ints: 1
      type: INTS
    }
    attribute {
      name: "group"
      i: 1
      type: INT
    }
    attribute {
      name: "kernel_shape"
      ints: 1
      ints: 1
      type: INTS
    }
    attribute {
      name: "pads"
      ints: 0
      ints: 0
      ints: 0
      ints: 0
      type: INTS
    }
    attribute {
      name: "strides"
      ints: 1
      ints: 1
      type: INTS
    }
  }
  node {
    input: "416"
    output: "417"
    op_type: "Transpose"
    attribute {
      name: "perm"
      ints: 0
      ints: 2
      ints: 3
      ints: 1
      type: INTS
    }
  }
  node {
    input: "417"
    output: "418"
    op_type: "Shape"
  }
  node {
    output: "419"
    op_type: "Constant"
    attribute {
      name: "value"
      t {
        data_type: 7
        raw_data: "\000\000\000\000\000\000\000\000"
      }
      type: TENSOR
    }
  }
  node {
    input: "418"
    input: "419"
    output: "420"
    op_type: "Gather"
    attribute {
      name: "axis"
      i: 0
      type: INT
    }
  }
  node {
    output: "421"
    op_type: "Constant"
    attribute {
      name: "value"
      t {
        data_type: 7
        raw_data: "\377\377\377\377\377\377\377\377"
      }
      type: TENSOR
    }
  }
  node {
    output: "422"
    op_type: "Constant"
    attribute {
      name: "value"
      t {
        data_type: 7
        raw_data: "\004\000\000\000\000\000\000\000"
      }
      type: TENSOR
    }
  }
  node {
    input: "420"
    output: "423"
    op_type: "Unsqueeze"
    attribute {
      name: "axes"
      ints: 0
      type: INTS
    }
  }
  node {
    input: "421"
    output: "424"
    op_type: "Unsqueeze"
    attribute {
      name: "axes"
      ints: 0
      type: INTS
    }
  }
  node {
    input: "422"
    output: "425"
    op_type: "Unsqueeze"
    attribute {
      name: "axes"
      ints: 0
      type: INTS
    }
  }
  node {
    input: "423"
    input: "424"
    input: "425"
    output: "426"
    op_type: "Concat"
    attribute {
      name: "axis"
      i: 0
      type: INT
    }
  }
  node {
    input: "417"
    input: "426"
    output: "427"
    op_type: "Reshape"
  }
  node {
    input: "403"
    input: "251"
    input: "252"
    output: "428"
    op_type: "Conv"
    attribute {
      name: "dilations"
      ints: 1
      ints: 1
      type: INTS
    }
    attribute {
      name: "group"
      i: 1
      type: INT
    }
    attribute {
      name: "kernel_shape"
      ints: 1
      ints: 1
      type: INTS
    }
    attribute {
      name: "pads"
      ints: 0
      ints: 0
      ints: 0
      ints: 0
      type: INTS
    }
    attribute {
      name: "strides"
      ints: 1
      ints: 1
      type: INTS
    }
  }
  node {
    input: "428"
    output: "429"
    op_type: "Transpose"
    attribute {
      name: "perm"
      ints: 0
      ints: 2
      ints: 3
      ints: 1
      type: INTS
    }
  }
  node {
    input: "429"
    output: "430"
    op_type: "Shape"
  }
  node {
    output: "431"
    op_type: "Constant"
    attribute {
      name: "value"
      t {
        data_type: 7
        raw_data: "\000\000\000\000\000\000\000\000"
      }
      type: TENSOR
    }
  }
  node {
    input: "430"
    input: "431"
    output: "432"
    op_type: "Gather"
    attribute {
      name: "axis"
      i: 0
      type: INT
    }
  }
  node {
    output: "433"
    op_type: "Constant"
    attribute {
      name: "value"
      t {
        data_type: 7
        raw_data: "\377\377\377\377\377\377\377\377"
      }
      type: TENSOR
    }
  }
  node {
    output: "434"
    op_type: "Constant"
    attribute {
      name: "value"
      t {
        data_type: 7
        raw_data: "\004\000\000\000\000\000\000\000"
      }
      type: TENSOR
    }
  }
  node {
    input: "432"
    output: "435"
    op_type: "Unsqueeze"
    attribute {
      name: "axes"
      ints: 0
      type: INTS
    }
  }
  node {
    input: "433"
    output: "436"
    op_type: "Unsqueeze"
    attribute {
      name: "axes"
      ints: 0
      type: INTS
    }
  }
  node {
    input: "434"
    output: "437"
    op_type: "Unsqueeze"
    attribute {
      name: "axes"
      ints: 0
      type: INTS
    }
  }
  node {
    input: "435"
    input: "436"
    input: "437"
    output: "438"
    op_type: "Concat"
    attribute {
      name: "axis"
      i: 0
      type: INT
    }
  }
  node {
    input: "429"
    input: "438"
    output: "439"
    op_type: "Reshape"
  }
  node {
    input: "415"
    input: "427"
    input: "439"
    output: "output0"
    op_type: "Concat"
    attribute {
      name: "axis"
      i: 1
      type: INT
    }
  }
  node {
    input: "375"
    input: "241"
    input: "242"
    output: "441"
    op_type: "Conv"
    attribute {
      name: "dilations"
      ints: 1
      ints: 1
      type: INTS
    }
    attribute {
      name: "group"
      i: 1
      type: INT
    }
    attribute {
      name: "kernel_shape"
      ints: 1
      ints: 1
      type: INTS
    }
    attribute {
      name: "pads"
      ints: 0
      ints: 0
      ints: 0
      ints: 0
      type: INTS
    }
    attribute {
      name: "strides"
      ints: 1
      ints: 1
      type: INTS
    }
  }
  node {
    input: "441"
    output: "442"
    op_type: "Transpose"
    attribute {
      name: "perm"
      ints: 0
      ints: 2
      ints: 3
      ints: 1
      type: INTS
    }
  }
  node {
    input: "442"
    output: "443"
    op_type: "Shape"
  }
  node {
    output: "444"
    op_type: "Constant"
    attribute {
      name: "value"
      t {
        data_type: 7
        raw_data: "\000\000\000\000\000\000\000\000"
      }
      type: TENSOR
    }
  }
  node {
    input: "443"
    input: "444"
    output: "445"
    op_type: "Gather"
    attribute {
      name: "axis"
      i: 0
      type: INT
    }
  }
  node {
    output: "446"
    op_type: "Constant"
    attribute {
      name: "value"
      t {
        data_type: 7
        raw_data: "\377\377\377\377\377\377\377\377"
      }
      type: TENSOR
    }
  }
  node {
    output: "447"
    op_type: "Constant"
    attribute {
      name: "value"
      t {
        data_type: 7
        raw_data: "\002\000\000\000\000\000\000\000"
      }
      type: TENSOR
    }
  }
  node {
    input: "445"
    output: "448"
    op_type: "Unsqueeze"
    attribute {
      name: "axes"
      ints: 0
      type: INTS
    }
  }
  node {
    input: "446"
    output: "449"
    op_type: "Unsqueeze"
    attribute {
      name: "axes"
      ints: 0
      type: INTS
    }
  }
  node {
    input: "447"
    output: "450"
    op_type: "Unsqueeze"
    attribute {
      name: "axes"
      ints: 0
      type: INTS
    }
  }
  node {
    input: "448"
    input: "449"
    input: "450"
    output: "451"
    op_type: "Concat"
    attribute {
      name: "axis"
      i: 0
      type: INT
    }
  }
  node {
    input: "442"
    input: "451"
    output: "452"
    op_type: "Reshape"
  }
  node {
    input: "389"
    input: "243"
    input: "244"
    output: "453"
    op_type: "Conv"
    attribute {
      name: "dilations"
      ints: 1
      ints: 1
      type: INTS
    }
    attribute {
      name: "group"
      i: 1
      type: INT
    }
    attribute {
      name: "kernel_shape"
      ints: 1
      ints: 1
      type: INTS
    }
    attribute {
      name: "pads"
      ints: 0
      ints: 0
      ints: 0
      ints: 0
      type: INTS
    }
    attribute {
      name: "strides"
      ints: 1
      ints: 1
      type: INTS
    }
  }
  node {
    input: "453"
    output: "454"
    op_type: "Transpose"
    attribute {
      name: "perm"
      ints: 0
      ints: 2
      ints: 3
      ints: 1
      type: INTS
    }
  }
  node {
    input: "454"
    output: "455"
    op_type: "Shape"
  }
  node {
    output: "456"
    op_type: "Constant"
    attribute {
      name: "value"
      t {
        data_type: 7
        raw_data: "\000\000\000\000\000\000\000\000"
      }
      type: TENSOR
    }
  }
  node {
    input: "455"
    input: "456"
    output: "457"
    op_type: "Gather"
    attribute {
      name: "axis"
      i: 0
      type: INT
    }
  }
  node {
    output: "458"
    op_type: "Constant"
    attribute {
      name: "value"
      t {
        data_type: 7
        raw_data: "\377\377\377\377\377\377\377\377"
      }
      type: TENSOR
    }
  }
  node {
    output: "459"
    op_type: "Constant"
    attribute {
      name: "value"
      t {
        data_type: 7
        raw_data: "\002\000\000\000\000\000\000\000"
      }
      type: TENSOR
    }
  }
  node {
    input: "457"
    output: "460"
    op_type: "Unsqueeze"
    attribute {
      name: "axes"
      ints: 0
      type: INTS
    }
  }
  node {
    input: "458"
    output: "461"
    op_type: "Unsqueeze"
    attribute {
      name: "axes"
      ints: 0
      type: INTS
    }
  }
  node {
    input: "459"
    output: "462"
    op_type: "Unsqueeze"
    attribute {
      name: "axes"
      ints: 0
      type: INTS
    }
  }
  node {
    input: "460"
    input: "461"
    input: "462"
    output: "463"
    op_type: "Concat"
    attribute {
      name: "axis"
      i: 0
      type: INT
    }
  }
  node {
    input: "454"
    input: "463"
    output: "464"
    op_type: "Reshape"
  }
  node {
    input: "403"
    input: "245"
    input: "246"
    output: "465"
    op_type: "Conv"
    attribute {
      name: "dilations"
      ints: 1
      ints: 1
      type: INTS
    }
    attribute {
      name: "group"
      i: 1
      type: INT
    }
    attribute {
      name: "kernel_shape"
      ints: 1
      ints: 1
      type: INTS
    }
    attribute {
      name: "pads"
      ints: 0
      ints: 0
      ints: 0
      ints: 0
      type: INTS
    }
    attribute {
      name: "strides"
      ints: 1
      ints: 1
      type: INTS
    }
  }
  node {
    input: "465"
    output: "466"
    op_type: "Transpose"
    attribute {
      name: "perm"
      ints: 0
      ints: 2
      ints: 3
      ints: 1
      type: INTS
    }
  }
  node {
    input: "466"
    output: "467"
    op_type: "Shape"
  }
  node {
    output: "468"
    op_type: "Constant"
    attribute {
      name: "value"
      t {
        data_type: 7
        raw_data: "\000\000\000\000\000\000\000\000"
      }
      type: TENSOR
    }
  }
  node {
    input: "467"
    input: "468"
    output: "469"
    op_type: "Gather"
    attribute {
      name: "axis"
      i: 0
      type: INT
    }
  }
  node {
    output: "470"
    op_type: "Constant"
    attribute {
      name: "value"
      t {
        data_type: 7
        raw_data: "\377\377\377\377\377\377\377\377"
      }
      type: TENSOR
    }
  }
  node {
    output: "471"
    op_type: "Constant"
    attribute {
      name: "value"
      t {
        data_type: 7
        raw_data: "\002\000\000\000\000\000\000\000"
      }
      type: TENSOR
    }
  }
  node {
    input: "469"
    output: "472"
    op_type: "Unsqueeze"
    attribute {
      name: "axes"
      ints: 0
      type: INTS
    }
  }
  node {
    input: "470"
    output: "473"
    op_type: "Unsqueeze"
    attribute {
      name: "axes"
      ints: 0
      type: INTS
    }
  }
  node {
    input: "471"
    output: "474"
    op_type: "Unsqueeze"
    attribute {
      name: "axes"
      ints: 0
      type: INTS
    }
  }
  node {
    input: "472"
    input: "473"
    input: "474"
    output: "475"
    op_type: "Concat"
    attribute {
      name: "axis"
      i: 0
      type: INT
    }
  }
  node {
    input: "466"
    input: "475"
    output: "476"
    op_type: "Reshape"
  }
  node {
    input: "452"
    input: "464"
    input: "476"
    output: "477"
    op_type: "Concat"
    attribute {
      name: "axis"
      i: 1
      type: INT
    }
  }
  node {
    input: "375"
    input: "253"
    input: "254"
    output: "478"
    op_type: "Conv"
    attribute {
      name: "dilations"
      ints: 1
      ints: 1
      type: INTS
    }
    attribute {
      name: "group"
      i: 1
      type: INT
    }
    attribute {
      name: "kernel_shape"
      ints: 1
      ints: 1
      type: INTS
    }
    attribute {
      name: "pads"
      ints: 0
      ints: 0
      ints: 0
      ints: 0
      type: INTS
    }
    attribute {
      name: "strides"
      ints: 1
      ints: 1
      type: INTS
    }
  }
  node {
    input: "478"
    output: "479"
    op_type: "Transpose"
    attribute {
      name: "perm"
      ints: 0
      ints: 2
      ints: 3
      ints: 1
      type: INTS
    }
  }
  node {
    input: "479"
    output: "480"
    op_type: "Shape"
  }
  node {
    output: "481"
    op_type: "Constant"
    attribute {
      name: "value"
      t {
        data_type: 7
        raw_data: "\000\000\000\000\000\000\000\000"
      }
      type: TENSOR
    }
  }
  node {
    input: "480"
    input: "481"
    output: "482"
    op_type: "Gather"
    attribute {
      name: "axis"
      i: 0
      type: INT
    }
  }
  node {
    output: "483"
    op_type: "Constant"
    attribute {
      name: "value"
      t {
        data_type: 7
        raw_data: "\377\377\377\377\377\377\377\377"
      }
      type: TENSOR
    }
  }
  node {
    output: "484"
    op_type: "Constant"
    attribute {
      name: "value"
      t {
        data_type: 7
        raw_data: "\n\000\000\000\000\000\000\000"
      }
      type: TENSOR
    }
  }
  node {
    input: "482"
    output: "485"
    op_type: "Unsqueeze"
    attribute {
      name: "axes"
      ints: 0
      type: INTS
    }
  }
  node {
    input: "483"
    output: "486"
    op_type: "Unsqueeze"
    attribute {
      name: "axes"
      ints: 0
      type: INTS
    }
  }
  node {
    input: "484"
    output: "487"
    op_type: "Unsqueeze"
    attribute {
      name: "axes"
      ints: 0
      type: INTS
    }
  }
  node {
    input: "485"
    input: "486"
    input: "487"
    output: "488"
    op_type: "Concat"
    attribute {
      name: "axis"
      i: 0
      type: INT
    }
  }
  node {
    input: "479"
    input: "488"
    output: "489"
    op_type: "Reshape"
  }
  node {
    input: "389"
    input: "255"
    input: "256"
    output: "490"
    op_type: "Conv"
    attribute {
      name: "dilations"
      ints: 1
      ints: 1
      type: INTS
    }
    attribute {
      name: "group"
      i: 1
      type: INT
    }
    attribute {
      name: "kernel_shape"
      ints: 1
      ints: 1
      type: INTS
    }
    attribute {
      name: "pads"
      ints: 0
      ints: 0
      ints: 0
      ints: 0
      type: INTS
    }
    attribute {
      name: "strides"
      ints: 1
      ints: 1
      type: INTS
    }
  }
  node {
    input: "490"
    output: "491"
    op_type: "Transpose"
    attribute {
      name: "perm"
      ints: 0
      ints: 2
      ints: 3
      ints: 1
      type: INTS
    }
  }
  node {
    input: "491"
    output: "492"
    op_type: "Shape"
  }
  node {
    output: "493"
    op_type: "Constant"
    attribute {
      name: "value"
      t {
        data_type: 7
        raw_data: "\000\000\000\000\000\000\000\000"
      }
      type: TENSOR
    }
  }
  node {
    input: "492"
    input: "493"
    output: "494"
    op_type: "Gather"
    attribute {
      name: "axis"
      i: 0
      type: INT
    }
  }
  node {
    output: "495"
    op_type: "Constant"
    attribute {
      name: "value"
      t {
        data_type: 7
        raw_data: "\377\377\377\377\377\377\377\377"
      }
      type: TENSOR
    }
  }
  node {
    output: "496"
    op_type: "Constant"
    attribute {
      name: "value"
      t {
        data_type: 7
        raw_data: "\n\000\000\000\000\000\000\000"
      }
      type: TENSOR
    }
  }
  node {
    input: "494"
    output: "497"
    op_type: "Unsqueeze"
    attribute {
      name: "axes"
      ints: 0
      type: INTS
    }
  }
  node {
    input: "495"
    output: "498"
    op_type: "Unsqueeze"
    attribute {
      name: "axes"
      ints: 0
      type: INTS
    }
  }
  node {
    input: "496"
    output: "499"
    op_type: "Unsqueeze"
    attribute {
      name: "axes"
      ints: 0
      type: INTS
    }
  }
  node {
    input: "497"
    input: "498"
    input: "499"
    output: "500"
    op_type: "Concat"
    attribute {
      name: "axis"
      i: 0
      type: INT
    }
  }
  node {
    input: "491"
    input: "500"
    output: "501"
    op_type: "Reshape"
  }
  node {
    input: "403"
    input: "257"
    input: "258"
    output: "502"
    op_type: "Conv"
    attribute {
      name: "dilations"
      ints: 1
      ints: 1
      type: INTS
    }
    attribute {
      name: "group"
      i: 1
      type: INT
    }
    attribute {
      name: "kernel_shape"
      ints: 1
      ints: 1
      type: INTS
    }
    attribute {
      name: "pads"
      ints: 0
      ints: 0
      ints: 0
      ints: 0
      type: INTS
    }
    attribute {
      name: "strides"
      ints: 1
      ints: 1
      type: INTS
    }
  }
  node {
    input: "502"
    output: "503"
    op_type: "Transpose"
    attribute {
      name: "perm"
      ints: 0
      ints: 2
      ints: 3
      ints: 1
      type: INTS
    }
  }
  node {
    input: "503"
    output: "504"
    op_type: "Shape"
  }
  node {
    output: "505"
    op_type: "Constant"
    attribute {
      name: "value"
      t {
        data_type: 7
        raw_data: "\000\000\000\000\000\000\000\000"
      }
      type: TENSOR
    }
  }
  node {
    input: "504"
    input: "505"
    output: "506"
    op_type: "Gather"
    attribute {
      name: "axis"
      i: 0
      type: INT
    }
  }
  node {
    output: "507"
    op_type: "Constant"
    attribute {
      name: "value"
      t {
        data_type: 7
        raw_data: "\377\377\377\377\377\377\377\377"
      }
      type: TENSOR
    }
  }
  node {
    output: "508"
    op_type: "Constant"
    attribute {
      name: "value"
      t {
        data_type: 7
        raw_data: "\n\000\000\000\000\000\000\000"
      }
      type: TENSOR
    }
  }
  node {
    input: "506"
    output: "509"
    op_type: "Unsqueeze"
    attribute {
      name: "axes"
      ints: 0
      type: INTS
    }
  }
  node {
    input: "507"
    output: "510"
    op_type: "Unsqueeze"
    attribute {
      name: "axes"
      ints: 0
      type: INTS
    }
  }
  node {
    input: "508"
    output: "511"
    op_type: "Unsqueeze"
    attribute {
      name: "axes"
      ints: 0
      type: INTS
    }
  }
  node {
    input: "509"
    input: "510"
    input: "511"
    output: "512"
    op_type: "Concat"
    attribute {
      name: "axis"
      i: 0
      type: INT
    }
  }
  node {
    input: "503"
    input: "512"
    output: "513"
    op_type: "Reshape"
  }
  node {
    input: "489"
    input: "501"
    input: "513"
    output: "514"
    op_type: "Concat"
    attribute {
      name: "axis"
      i: 1
      type: INT
    }
  }
  node {
    input: "477"
    output: "515"
    op_type: "Softmax"
    attribute {
      name: "axis"
      i: 2
      type: INT
    }
  }
  name: "torch-jit-export"
  initializer {
    dims: 64
    dims: 3
    dims: 7
    dims: 7
    data_type: 1
    name: "1"
    raw_data: "..."
  }
  initializer {
    dims: 64
    data_type: 1
    name: "10"
    raw_data: "..."
  }
  initializer {
    dims: 512
    data_type: 1
    name: "100"
    raw_data: "..."
  }
  initializer {
    dims: 512
    data_type: 1
    name: "101"
    raw_data: "..."
  }
  initializer {
    data_type: 7
    name: "102"
    raw_data: "vU\002\000\000\000\000\000"
  }
  initializer {
    dims: 512
    dims: 256
    dims: 1
    dims: 1
    data_type: 1
    name: "103"
    raw_data: "..."
  }
  initializer {
    dims: 512
    data_type: 1
    name: "104"
    raw_data: "..."
  }
  initializer {
    dims: 512
    data_type: 1
    name: "105"
    raw_data: "..."
  }
  initializer {
    dims: 512
    data_type: 1
    name: "106"
    raw_data: "..."
  }
  initializer {
    dims: 512
    data_type: 1
    name: "107"
    raw_data: "..."
  }
  initializer {
    data_type: 7
    name: "108"
    raw_data: "vU\002\000\000\000\000\000"
  }
  initializer {
    dims: 512
    dims: 512
    dims: 3
    dims: 3
    data_type: 1
    name: "109"
    raw_data: "..."
  }
  initializer {
    dims: 64
    data_type: 1
    name: "11"
    raw_data: "..."
  }
  initializer {
    dims: 512
    data_type: 1
    name: "110"
    raw_data: "..."
  }
  initializer {
    dims: 512
    data_type: 1
    name: "111"
    raw_data: "..."
  }
  initializer {
    dims: 512
    data_type: 1
    name: "112"
    raw_data: "..."
  }
  initializer {
    dims: 512
    data_type: 1
    name: "113"
    raw_data: "..."
  }
  initializer {
    data_type: 7
    name: "114"
    raw_data: "vU\002\000\000\000\000\000"
  }
  initializer {
    dims: 512
    dims: 512
    dims: 3
    dims: 3
    data_type: 1
    name: "115"
    raw_data: "..."
  }
  initializer {
    dims: 512
    data_type: 1
    name: "116"
    raw_data: "..."
  }
  initializer {
    dims: 512
    data_type: 1
    name: "117"
    raw_data: "..."
  }
  initializer {
    dims: 512
    data_type: 1
    name: "118"
    raw_data: "..."
  }
  initializer {
    dims: 512
    data_type: 1
    name: "119"
    raw_data: "..."
  }
  initializer {
    data_type: 7
    name: "12"
    raw_data: "vU\002\000\000\000\000\000"
  }
  initializer {
    data_type: 7
    name: "120"
    raw_data: "vU\002\000\000\000\000\000"
  }
  initializer {
    dims: 128
    dims: 128
    dims: 1
    dims: 1
    data_type: 1
    name: "121"
    raw_data: "..."
  }
  initializer {
    dims: 128
    data_type: 1
    name: "122"
    raw_data: "..."
  }
  initializer {
    dims: 128
    data_type: 1
    name: "123"
    raw_data: "..."
  }
  initializer {
    dims: 128
    data_type: 1
    name: "124"
    raw_data: "..."
  }
  initializer {
    dims: 128
    data_type: 1
    name: "125"
    raw_data: "..."
  }
  initializer {
    data_type: 7
    name: "126"
    raw_data: "vU\002\000\000\000\000\000"
  }
  initializer {
    dims: 128
    dims: 256
    dims: 1
    dims: 1
    data_type: 1
    name: "127"
    raw_data: "..."
  }
  initializer {
    dims: 128
    data_type: 1
    name: "128"
    raw_data: "..."
  }
  initializer {
    dims: 128
    data_type: 1
    name: "129"
    raw_data: "..."
  }
  initializer {
    dims: 64
    dims: 64
    dims: 3
    dims: 3
    data_type: 1
    name: "13"
    raw_data: "..."
  }
  initializer {
    dims: 128
    data_type: 1
    name: "130"
    raw_data: "..."
  }
  initializer {
    dims: 128
    data_type: 1
    name: "131"
    raw_data: "..."
  }
  initializer {
    data_type: 7
    name: "132"
    raw_data: "vU\002\000\000\000\000\000"
  }
  initializer {
    dims: 128
    dims: 512
    dims: 1
    dims: 1
    data_type: 1
    name: "133"
    raw_data: "..."
  }
  initializer {
    dims: 128
    data_type: 1
    name: "134"
    raw_data: "..."
  }
  initializer {
    dims: 128
    data_type: 1
    name: "135"
    raw_data: "..."
  }
  initializer {
    dims: 128
    data_type: 1
    name: "136"
    raw_data: "..."
  }
  initializer {
    dims: 128
    data_type: 1
    name: "137"
    raw_data: "..."
  }
  initializer {
    data_type: 7
    name: "138"
    raw_data: "vU\002\000\000\000\000\000"
  }
  initializer {
    dims: 128
    dims: 128
    dims: 3
    dims: 3
    data_type: 1
    name: "139"
    raw_data: "..."
  }
  initializer {
    dims: 64
    data_type: 1
    name: "14"
    raw_data: "..."
  }
  initializer {
    dims: 128
    data_type: 1
    name: "140"
    raw_data: "..."
  }
  initializer {
    dims: 128
    data_type: 1
    name: "141"
    raw_data: "..."
  }
  initializer {
    dims: 128
    data_type: 1
    name: "142"
    raw_data: "..."
  }
  initializer {
    dims: 128
    data_type: 1
    name: "143"
    raw_data: "..."
  }
  initializer {
    data_type: 7
    name: "144"
    raw_data: "vU\002\000\000\000\000\000"
  }
  initializer {
    dims: 128
    dims: 128
    dims: 3
    dims: 3
    data_type: 1
    name: "145"
    raw_data: "..."
  }
  initializer {
    dims: 128
    data_type: 1
    name: "146"
    raw_data: "..."
  }
  initializer {
    dims: 128
    data_type: 1
    name: "147"
    raw_data: "..."
  }
  initializer {
    dims: 128
    data_type: 1
    name: "148"
    raw_data: "..."
  }
  initializer {
    dims: 128
    data_type: 1
    name: "149"
    raw_data: "..."
  }
  initializer {
    dims: 64
    data_type: 1
    name: "15"
    raw_data: "..."
  }
  initializer {
    data_type: 7
    name: "150"
    raw_data: "vU\002\000\000\000\000\000"
  }
  initializer {
    dims: 64
    dims: 128
    dims: 3
    dims: 3
    data_type: 1
    name: "151"
    raw_data: "..."
  }
  initializer {
    dims: 64
    data_type: 1
    name: "152"
    raw_data: "..."
  }
  initializer {
    dims: 64
    data_type: 1
    name: "153"
    raw_data: "..."
  }
  initializer {
    dims: 64
    data_type: 1
    name: "154"
    raw_data: "..."
  }
  initializer {
    dims: 64
    data_type: 1
    name: "155"
    raw_data: "..."
  }
  initializer {
    data_type: 7
    name: "156"
    raw_data: "vU\002\000\000\000\000\000"
  }
  initializer {
    dims: 32
    dims: 128
    dims: 3
    dims: 3
    data_type: 1
    name: "157"
    raw_data: "..."
  }
  initializer {
    dims: 32
    data_type: 1
    name: "158"
    raw_data: "..."
  }
  initializer {
    dims: 32
    data_type: 1
    name: "159"
    raw_data: "..."
  }
  initializer {
    dims: 64
    data_type: 1
    name: "16"
    raw_data: "..."
  }
  initializer {
    dims: 32
    data_type: 1
    name: "160"
    raw_data: "..."
  }
  initializer {
    dims: 32
    data_type: 1
    name: "161"
    raw_data: "..."
  }
  initializer {
    data_type: 7
    name: "162"
    raw_data: "vU\002\000\000\000\000\000"
  }
  initializer {
    dims: 32
    dims: 32
    dims: 3
    dims: 3
    data_type: 1
    name: "163"
    raw_data: "..."
  }
  initializer {
    dims: 32
    data_type: 1
    name: "164"
    raw_data: "..."
  }
  initializer {
    dims: 32
    data_type: 1
    name: "165"
    raw_data: "..."
  }
  initializer {
    dims: 32
    data_type: 1
    name: "166"
    raw_data: "..."
  }
  initializer {
    dims: 32
    data_type: 1
    name: "167"
    raw_data: "..."
  }
  initializer {
    data_type: 7
    name: "168"
    raw_data: "vU\002\000\000\000\000\000"
  }
  initializer {
    dims: 32
    dims: 32
    dims: 3
    dims: 3
    data_type: 1
    name: "169"
    raw_data: "..."
  }
  initializer {
    dims: 64
    data_type: 1
    name: "17"
    raw_data: "..."
  }
  initializer {
    dims: 32
    data_type: 1
    name: "170"
    raw_data: "..."
  }
  initializer {
    dims: 32
    data_type: 1
    name: "171"
    raw_data: "..."
  }
  initializer {
    dims: 32
    data_type: 1
    name: "172"
    raw_data: "..."
  }
  initializer {
    dims: 32
    data_type: 1
    name: "173"
    raw_data: "..."
  }
  initializer {
    data_type: 7
    name: "174"
    raw_data: "vU\002\000\000\000\000\000"
  }
  initializer {
    dims: 32
    dims: 32
    dims: 3
    dims: 3
    data_type: 1
    name: "175"
    raw_data: "..."
  }
  initializer {
    dims: 32
    data_type: 1
    name: "176"
    raw_data: "..."
  }
  initializer {
    dims: 32
    data_type: 1
    name: "177"
    raw_data: "..."
  }
  initializer {
    dims: 32
    data_type: 1
    name: "178"
    raw_data: "..."
  }
  initializer {
    dims: 32
    data_type: 1
    name: "179"
    raw_data: "..."
  }
  initializer {
    data_type: 7
    name: "18"
    raw_data: "vU\002\000\000\000\000\000"
  }
  initializer {
    data_type: 7
    name: "180"
    raw_data: "vU\002\000\000\000\000\000"
  }
  initializer {
    dims: 64
    dims: 128
    dims: 3
    dims: 3
    data_type: 1
    name: "181"
    raw_data: "..."
  }
  initializer {
    dims: 64
    data_type: 1
    name: "182"
    raw_data: "..."
  }
  initializer {
    dims: 64
    data_type: 1
    name: "183"
    raw_data: "..."
  }
  initializer {
    dims: 64
    data_type: 1
    name: "184"
    raw_data: "..."
  }
  initializer {
    dims: 64
    data_type: 1
    name: "185"
    raw_data: "..."
  }
  initializer {
    data_type: 7
    name: "186"
    raw_data: "vU\002\000\000\000\000\000"
  }
  initializer {
    dims: 32
    dims: 128
    dims: 3
    dims: 3
    data_type: 1
    name: "187"
    raw_data: "..."
  }
  initializer {
    dims: 32
    data_type: 1
    name: "188"
    raw_data: "..."
  }
  initializer {
    dims: 32
    data_type: 1
    name: "189"
    raw_data: "..."
  }
  initializer {
    dims: 64
    dims: 64
    dims: 3
    dims: 3
    data_type: 1
    name: "19"
    raw_data: "..."
  }
  initializer {
    dims: 32
    data_type: 1
    name: "190"
    raw_data: "..."
  }
  initializer {
    dims: 32
    data_type: 1
    name: "191"
    raw_data: "..."
  }
  initializer {
    data_type: 7
    name: "192"
    raw_data: "vU\002\000\000\000\000\000"
  }
  initializer {
    dims: 32
    dims: 32
    dims: 3
    dims: 3
    data_type: 1
    name: "193"
    raw_data: "..."
  }
  initializer {
    dims: 32
    data_type: 1
    name: "194"
    raw_data: "..."
  }
  initializer {
    dims: 32
    data_type: 1
    name: "195"
    raw_data: "..."
  }
  initializer {
    dims: 32
    data_type: 1
    name: "196"
    raw_data: "..."
  }
  initializer {
    dims: 32
    data_type: 1
    name: "197"
    raw_data: "..."
  }
  initializer {
    data_type: 7
    name: "198"
    raw_data: "vU\002\000\000\000\000\000"
  }
  initializer {
    dims: 32
    dims: 32
    dims: 3
    dims: 3
    data_type: 1
    name: "199"
    raw_data: "..."
  }
  initializer {
    dims: 64
    data_type: 1
    name: "2"
    raw_data: "..."
  }
  initializer {
    dims: 64
    data_type: 1
    name: "20"
    raw_data: "..."
  }
  initializer {
    dims: 32
    data_type: 1
    name: "200"
    raw_data: "..."
  }
  initializer {
    dims: 32
    data_type: 1
    name: "201"
    raw_data: "..."
  }
  initializer {
    dims: 32
    data_type: 1
    name: "202"
    raw_data: "..."
  }
  initializer {
    dims: 32
    data_type: 1
    name: "203"
    raw_data: "..."
  }
  initializer {
    data_type: 7
    name: "204"
    raw_data: "vU\002\000\000\000\000\000"
  }
  initializer {
    dims: 32
    dims: 32
    dims: 3
    dims: 3
    data_type: 1
    name: "205"
    raw_data: "..."
  }
  initializer {
    dims: 32
    data_type: 1
    name: "206"
    raw_data: "..."
  }
  initializer {
    dims: 32
    data_type: 1
    name: "207"
    raw_data: "..."
  }
  initializer {
    dims: 32
    data_type: 1
    name: "208"
    raw_data: "..."
  }
  initializer {
    dims: 32
    data_type: 1
    name: "209"
    raw_data: "..."
  }
  initializer {
    dims: 64
    data_type: 1
    name: "21"
    raw_data: "..."
  }
  initializer {
    data_type: 7
    name: "210"
    raw_data: "vU\002\000\000\000\000\000"
  }
  initializer {
    dims: 64
    dims: 128
    dims: 3
    dims: 3
    data_type: 1
    name: "211"
    raw_data: "..."
  }
  initializer {
    dims: 64
    data_type: 1
    name: "212"
    raw_data: "..."
  }
  initializer {
    dims: 64
    data_type: 1
    name: "213"
    raw_data: "..."
  }
  initializer {
    dims: 64
    data_type: 1
    name: "214"
    raw_data: "..."
  }
  initializer {
    dims: 64
    data_type: 1
    name: "215"
    raw_data: "..."
  }
  initializer {
    data_type: 7
    name: "216"
    raw_data: "vU\002\000\000\000\000\000"
  }
  initializer {
    dims: 32
    dims: 128
    dims: 3
    dims: 3
    data_type: 1
    name: "217"
    raw_data: "..."
  }
  initializer {
    dims: 32
    data_type: 1
    name: "218"
    raw_data: "..."
  }
  initializer {
    dims: 32
    data_type: 1
    name: "219"
    raw_data: "..."
  }
  initializer {
    dims: 64
    data_type: 1
    name: "22"
    raw_data: "..."
  }
  initializer {
    dims: 32
    data_type: 1
    name: "220"
    raw_data: "..."
  }
  initializer {
    dims: 32
    data_type: 1
    name: "221"
    raw_data: "..."
  }
  initializer {
    data_type: 7
    name: "222"
    raw_data: "vU\002\000\000\000\000\000"
  }
  initializer {
    dims: 32
    dims: 32
    dims: 3
    dims: 3
    data_type: 1
    name: "223"
    raw_data: "..."
  }
  initializer {
    dims: 32
    data_type: 1
    name: "224"
    raw_data: "..."
  }
  initializer {
    dims: 32
    data_type: 1
    name: "225"
    raw_data: "..."
  }
  initializer {
    dims: 32
    data_type: 1
    name: "226"
    raw_data: "..."
  }
  initializer {
    dims: 32
    data_type: 1
    name: "227"
    raw_data: "..."
  }
  initializer {
    data_type: 7
    name: "228"
    raw_data: "vU\002\000\000\000\000\000"
  }
  initializer {
    dims: 32
    dims: 32
    dims: 3
    dims: 3
    data_type: 1
    name: "229"
    raw_data: "..."
  }
  initializer {
    dims: 64
    data_type: 1
    name: "23"
    raw_data: "..."
  }
  initializer {
    dims: 32
    data_type: 1
    name: "230"
    raw_data: "..."
  }
  initializer {
    dims: 32
    data_type: 1
    name: "231"
    raw_data: "..."
  }
  initializer {
    dims: 32
    data_type: 1
    name: "232"
    raw_data: "..."
  }
  initializer {
    dims: 32
    data_type: 1
    name: "233"
    raw_data: "..."
  }
  initializer {
    data_type: 7
    name: "234"
    raw_data: "vU\002\000\000\000\000\000"
  }
  initializer {
    dims: 32
    dims: 32
    dims: 3
    dims: 3
    data_type: 1
    name: "235"
    raw_data: "..."
  }
  initializer {
    dims: 32
    data_type: 1
    name: "236"
    raw_data: "..."
  }
  initializer {
    dims: 32
    data_type: 1
    name: "237"
    raw_data: "..."
  }
  initializer {
    dims: 32
    data_type: 1
    name: "238"
    raw_data: "..."
  }
  initializer {
    dims: 32
    data_type: 1
    name: "239"
    raw_data: "..."
  }
  initializer {
    data_type: 7
    name: "24"
    raw_data: "vU\002\000\000\000\000\000"
  }
  initializer {
    data_type: 7
    name: "240"
    raw_data: "vU\002\000\000\000\000\000"
  }
  initializer {
    dims: 4
    dims: 128
    dims: 1
    dims: 1
    data_type: 1
    name: "241"
    raw_data: "..."
  }
  initializer {
    dims: 4
    data_type: 1
    name: "242"
    raw_data: "\034I\345>\274\213\306\276o7\322>\313u\270\276"
  }
  initializer {
    dims: 4
    dims: 128
    dims: 1
    dims: 1
    data_type: 1
    name: "243"
    raw_data: "..."
  }
  initializer {
    dims: 4
    data_type: 1
    name: "244"
    raw_data: "}\304\227>u\302\224\276\315\210\245>p\337\261\276"
  }
  initializer {
    dims: 4
    dims: 128
    dims: 1
    dims: 1
    data_type: 1
    name: "245"
    raw_data: "..."
  }
  initializer {
    dims: 4
    data_type: 1
    name: "246"
    raw_data: "\240\010\234>\364\t\231\276\271\027Y>\233\312U\276"
  }
  initializer {
    dims: 8
    dims: 128
    dims: 1
    dims: 1
    data_type: 1
    name: "247"
    raw_data: "..."
  }
  initializer {
    dims: 8
    data_type: 1
    name: "248"
    raw_data: "(\262\343;\357\304\026\275\023\316\343\275\'\307\312<\'\261l=\013n\241\274\247\324g\276\245\234Y<"
  }
  initializer {
    dims: 8
    dims: 128
    dims: 1
    dims: 1
    data_type: 1
    name: "249"
    raw_data: "..."
  }
  initializer {
    dims: 64
    dims: 64
    dims: 3
    dims: 3
    data_type: 1
    name: "25"
    raw_data: "..."
  }
  initializer {
    dims: 8
    data_type: 1
    name: "250"
    raw_data: "…"
  }
  initializer {
    dims: 8
    dims: 128
    dims: 1
    dims: 1
    data_type: 1
    name: "251"
    raw_data: "..."
  }
  initializer {
    dims: 8
    data_type: 1
    name: "252"
    raw_data: "…"
  }
  initializer {
    dims: 20
    dims: 128
    dims: 1
    dims: 1
    data_type: 1
    name: "253"
    raw_data: "..."
  }
  initializer {
    dims: 20
    data_type: 1
    name: "254"
    raw_data: "..."
  }
  initializer {
    dims: 20
    dims: 128
    dims: 1
    dims: 1
    data_type: 1
    name: "255"
    raw_data: "..."
  }
  initializer {
    dims: 20
    data_type: 1
    name: "256"
    raw_data: "..."
  }
  initializer {
    dims: 20
    dims: 128
    dims: 1
    dims: 1
    data_type: 1
    name: "257"
    raw_data: "..."
  }
  initializer {
    dims: 20
    data_type: 1
    name: "258"
    raw_data: "..."
  }
  initializer {
    dims: 64
    data_type: 1
    name: "26"
    raw_data: "..."
  }
  initializer {
    dims: 64
    data_type: 1
    name: "27"
    raw_data: "..."
  }
  initializer {
    dims: 64
    data_type: 1
    name: "28"
    raw_data: "..."
  }
  initializer {
    dims: 64
    data_type: 1
    name: "29"
    raw_data: "..."
  }
  initializer {
    dims: 64
    data_type: 1
    name: "3"
    raw_data: "..."
  }
  initializer {
    data_type: 7
    name: "30"
    raw_data: "vU\002\000\000\000\000\000"
  }
  initializer {
    dims: 128
    dims: 64
    dims: 3
    dims: 3
    data_type: 1
    name: "31"
    raw_data: "..."
  }
  initializer {
    dims: 128
    data_type: 1
    name: "32"
    raw_data: "..."
  }
  initializer {
    dims: 128
    data_type: 1
    name: "33"
    raw_data: "..."
  }
  initializer {
    dims: 128
    data_type: 1
    name: "34"
    raw_data: "..."
  }
  initializer {
    dims: 128
    data_type: 1
    name: "35"
    raw_data: "..."
  }
  initializer {
    data_type: 7
    name: "36"
    raw_data: "vU\002\000\000\000\000\000"
  }
  initializer {
    dims: 128
    dims: 128
    dims: 3
    dims: 3
    data_type: 1
    name: "37"
    raw_data: "..."
  }
  initializer {
    dims: 128
    data_type: 1
    name: "38"
    raw_data: "..."
  }
  initializer {
    dims: 128
    data_type: 1
    name: "39"
    raw_data: "..."
  }
  initializer {
    dims: 64
    data_type: 1
    name: "4"
    raw_data: "..."
  }
  initializer {
    dims: 128
    data_type: 1
    name: "40"
    raw_data: "..."
  }
  initializer {
    dims: 128
    data_type: 1
    name: "41"
    raw_data: "..."
  }
  initializer {
    data_type: 7
    name: "42"
    raw_data: "vU\002\000\000\000\000\000"
  }
  initializer {
    dims: 128
    dims: 64
    dims: 1
    dims: 1
    data_type: 1
    name: "43"
    raw_data: "..."
  }
  initializer {
    dims: 128
    data_type: 1
    name: "44"
    raw_data: "..."
  }
  initializer {
    dims: 128
    data_type: 1
    name: "45"
    raw_data: "..."
  }
  initializer {
    dims: 128
    data_type: 1
    name: "46"
    raw_data: "..."
  }
  initializer {
    dims: 128
    data_type: 1
    name: "47"
    raw_data: "..."
  }
  initializer {
    data_type: 7
    name: "48"
    raw_data: "vU\002\000\000\000\000\000"
  }
  initializer {
    dims: 128
    dims: 128
    dims: 3
    dims: 3
    data_type: 1
    name: "49"
    raw_data: "..."
  }
  initializer {
    dims: 64
    data_type: 1
    name: "5"
    raw_data: "..."
  }
  initializer {
    dims: 128
    data_type: 1
    name: "50"
    raw_data: "..."
  }
  initializer {
    dims: 128
    data_type: 1
    name: "51"
    raw_data: "..."
  }
  initializer {
    dims: 128
    data_type: 1
    name: "52"
    raw_data: "..."
  }
  initializer {
    dims: 128
    data_type: 1
    name: "53"
    raw_data: "..."
  }
  initializer {
    data_type: 7
    name: "54"
    raw_data: "vU\002\000\000\000\000\000"
  }
  initializer {
    dims: 128
    dims: 128
    dims: 3
    dims: 3
    data_type: 1
    name: "55"
    raw_data: "..."
  }
  initializer {
    dims: 128
    data_type: 1
    name: "56"
    raw_data: "..."
  }
  initializer {
    dims: 128
    data_type: 1
    name: "57"
    raw_data: "..."
  }
  initializer {
    dims: 128
    data_type: 1
    name: "58"
    raw_data: "..."
  }
  initializer {
    dims: 128
    data_type: 1
    name: "59"
    raw_data: "..."
  }
  initializer {
    data_type: 7
    name: "6"
    raw_data: "vU\002\000\000\000\000\000"
  }
  initializer {
    data_type: 7
    name: "60"
    raw_data: "vU\002\000\000\000\000\000"
  }
  initializer {
    dims: 256
    dims: 128
    dims: 3
    dims: 3
    data_type: 1
    name: "61"
    raw_data: "..."
  }
  initializer {
    dims: 256
    data_type: 1
    name: "62"
    raw_data: "..."
  }
  initializer {
    dims: 256
    data_type: 1
    name: "63"
    raw_data: "..."
  }
  initializer {
    dims: 256
    data_type: 1
    name: "64"
    raw_data: "..."
  }
  initializer {
    dims: 256
    data_type: 1
    name: "65"
    raw_data: "..."
  }
  initializer {
    data_type: 7
    name: "66"
    raw_data: "vU\002\000\000\000\000\000"
  }
  initializer {
    dims: 256
    dims: 256
    dims: 3
    dims: 3
    data_type: 1
    name: "67"
    raw_data: "..."
  }
  initializer {
    dims: 256
    data_type: 1
    name: "68"
    raw_data: "..."
  }
  initializer {
    dims: 256
    data_type: 1
    name: "69"
    raw_data: "..."
  }
  initializer {
    dims: 64
    dims: 64
    dims: 3
    dims: 3
    data_type: 1
    name: "7"
    raw_data: "..."
  }
  initializer {
    dims: 256
    data_type: 1
    name: "70"
    raw_data: "..."
  }
  initializer {
    dims: 256
    data_type: 1
    name: "71"
    raw_data: "..."
  }
  initializer {
    data_type: 7
    name: "72"
    raw_data: "vU\002\000\000\000\000\000"
  }
  initializer {
    dims: 256
    dims: 128
    dims: 1
    dims: 1
    data_type: 1
    name: "73"
    raw_data: "..."
  }
  initializer {
    dims: 256
    data_type: 1
    name: "74"
    raw_data: "..."
  }
  initializer {
    dims: 256
    data_type: 1
    name: "75"
    raw_data: "..."
  }
  initializer {
    dims: 256
    data_type: 1
    name: "76"
    raw_data: "..."
  }
  initializer {
    dims: 256
    data_type: 1
    name: "77"
    raw_data: "..."
  }
  initializer {
    data_type: 7
    name: "78"
    raw_data: "vU\002\000\000\000\000\000"
  }
  initializer {
    dims: 256
    dims: 256
    dims: 3
    dims: 3
    data_type: 1
    name: "79"
    raw_data: "..."
  }
  initializer {
    dims: 64
    data_type: 1
    name: "8"
    raw_data: "..."
  }
  initializer {
    dims: 256
    data_type: 1
    name: "80"
    raw_data: "..."
  }
  initializer {
    dims: 256
    data_type: 1
    name: "81"
    raw_data: "..."
  }
  initializer {
    dims: 256
    data_type: 1
    name: "82"
    raw_data: "..."
  }
  initializer {
    dims: 256
    data_type: 1
    name: "83"
    raw_data: "..."
  }
  initializer {
    data_type: 7
    name: "84"
    raw_data: "vU\002\000\000\000\000\000"
  }
  initializer {
    dims: 256
    dims: 256
    dims: 3
    dims: 3
    data_type: 1
    name: "85"
    raw_data: "..."
  }
  initializer {
    dims: 256
    data_type: 1
    name: "86"
    raw_data: "..."
  }
  initializer {
    dims: 256
    data_type: 1
    name: "87"
    raw_data: "..."
  }
  initializer {
    dims: 256
    data_type: 1
    name: "88"
    raw_data: "..."
  }
  initializer {
    dims: 256
    data_type: 1
    name: "89"
    raw_data: "..."
  }
  initializer {
    dims: 64
    data_type: 1
    name: "9"
    raw_data: "..."
  }
  initializer {
    data_type: 7
    name: "90"
    raw_data: "vU\002\000\000\000\000\000"
  }
  initializer {
    dims: 512
    dims: 256
    dims: 3
    dims: 3
    data_type: 1
    name: "91"
    raw_data: "..."
  }
  initializer {
    dims: 512
    data_type: 1
    name: "92"
    raw_data: "..."
  }
  initializer {
    dims: 512
    data_type: 1
    name: "93"
    raw_data: "..."
  }
  initializer {
    dims: 512
    data_type: 1
    name: "94"
    raw_data: "..."
  }
  initializer {
    dims: 512
    data_type: 1
    name: "95"
    raw_data: "..."
  }
  initializer {
    data_type: 7
    name: "96"
    raw_data: "vU\002\000\000\000\000\000"
  }
  initializer {
    dims: 512
    dims: 512
    dims: 3
    dims: 3
    data_type: 1
    name: "97"
    raw_data: "..."
  }
  initializer {
    dims: 512
    data_type: 1
    name: "98"
    raw_data: "..."
  }
  initializer {
    dims: 512
    data_type: 1
    name: "99"
    raw_data: "..."
  }
  input {
    name: "input0"
    type {
      tensor_type {
        elem_type: 1
        shape {
          dim {
            dim_value: 1
          }
          dim {
            dim_value: 3
          }
          dim {
            dim_value: 640
          }
          dim {
            dim_value: 640
          }
        }
      }
    }
  }
  output {
    name: "output0"
    type {
      tensor_type {
        elem_type: 1
        shape {
          dim {
            dim_value: 1
          }
          dim {
            dim_value: 16800
          }
          dim {
            dim_value: 4
          }
        }
      }
    }
  }
  output {
    name: "515"
    type {
      tensor_type {
        elem_type: 1
        shape {
          dim {
            dim_value: 1
          }
          dim {
            dim_value: 16800
          }
          dim {
            dim_value: 2
          }
        }
      }
    }
  }
  output {
    name: "514"
    type {
      tensor_type {
        elem_type: 1
        shape {
          dim {
            dim_value: 1
          }
          dim {
            dim_value: 16800
          }
          dim {
            dim_value: 10
          }
        }
      }
    }
  }
}
opset_import {
  version: 11
}
